VisionMamba(
  (patch_embed): PatchEmbed(
    (proj): Conv2d(3, 384, kernel_size=(16, 16), stride=(8, 8))
    (norm): Identity()
  )
  (pos_drop): Dropout(p=0.0, inplace=False)
  (head): Linear(in_features=384, out_features=1000, bias=True)
  (drop_path): DropPath()
  (layers): ModuleList(
    (0-1): 2 x Block(
      (mixer): Mamba(
        (in_proj): Linear(in_features=384, out_features=1536, bias=False)
        (conv1d): Conv1d(768, 768, kernel_size=(4,), stride=(1,), padding=(3,), groups=768)
        (act): SiLU()
        (x_proj): Linear(in_features=768, out_features=56, bias=False)
        (dt_proj): Linear(in_features=24, out_features=768, bias=True)
        (conv1d_b): Conv1d(768, 768, kernel_size=(4,), stride=(1,), padding=(3,), groups=768)
        (x_proj_b): Linear(in_features=768, out_features=56, bias=False)
        (dt_proj_b): Linear(in_features=24, out_features=768, bias=True)
        (out_proj): Linear(in_features=768, out_features=384, bias=False)
      )
      (norm): RMSNorm()
      (drop_path): Identity()
    )
    (2-23): 22 x Block(
      (mixer): Mamba(
        (in_proj): Linear(in_features=384, out_features=1536, bias=False)
        (conv1d): Conv1d(768, 768, kernel_size=(4,), stride=(1,), padding=(3,), groups=768)
        (act): SiLU()
        (x_proj): Linear(in_features=768, out_features=56, bias=False)
        (dt_proj): Linear(in_features=24, out_features=768, bias=True)
        (conv1d_b): Conv1d(768, 768, kernel_size=(4,), stride=(1,), padding=(3,), groups=768)
        (x_proj_b): Linear(in_features=768, out_features=56, bias=False)
        (dt_proj_b): Linear(in_features=24, out_features=768, bias=True)
        (out_proj): Linear(in_features=768, out_features=384, bias=False)
      )
      (norm): RMSNorm()
      (drop_path): DropPath()
    )
  )
  (norm_f): RMSNorm()
)

patch_embed
pos_drop
head
drop_path
layers
norm_f